hw13/student_best.ckpt (torch, 421943 bytes, 52 tensors)

cnn.0.0.weight f4 [3, 1, 3, 3]
000000 0d bf 93 bd a6 ce cb be d0 c3 eb bd a8 d9 c4 3d
       -0.072141744 -0.39806098 -0.11511958 0.09611827
000010 ce a5 73 be cb 53 27 be c1 a2 94 be 55 dc 22 3e
       -0.23793718 -0.16340558 -0.2903042 0.15904362
000020 82 3d 59 3e 7b 5f 1e bc 78 5b 35 be 78 cc e7 bd
       0.2121487 -0.009666319 -0.17710674 -0.11318296
000030 ca d1 82 be c1 3c 6f 3e ac b6 11 be a1 b8 c9 3d
       -0.2555068 0.2336302 -0.1422984 0.09849668
000040 69 1c 06 bf 9a a7 ae be ca ee 71 bd d9 93 c1 bd
       -0.523871 -0.34112245 -0.059065618 -0.09452028
000050 b4 06 c7 bd 07 a1 f7 bd 81 6d cc be 9e 84 23 bb
       -0.097180754 -0.120912604 -0.39927295 -0.0024950872
000060 51 1d 50 be 1e 70 9c be 9a 19 60 bd
       -0.20323683 -0.3055429 -0.054711916

cnn.0.0.bias f4 [3]
000000 ab fe ab 3b 97 d9 b4 bb a9 92 be bb
       0.0052488646 -0.005519103 -0.005815823

cnn.0.1.weight f4 [32, 3, 1, 1]
000000 4f a9 f7 3e 58 ad d9 be 07 52 18 bc 34 5c ca be
       0.4837136 -0.42515063 -0.009296901 -0.3952347
000010 f4 2c 04 bf 53 61 c5 be 4b a5 9a be d4 aa d6 3e
       -0.51631093 -0.38550815 -0.30204234 0.41927207
000020 91 51 f8 be e0 7e 3e 3e 5a 8e 0e 3f 5d fd 1e bf
       -0.4849973 0.18603086 0.5568596 -0.6210535
000030 dd ac 81 3e 51 1b 67 be 50 d9 ce bd e8 a1 ea 3d
       0.25327197 -0.22569014 -0.10100043 0.114566624
000040 24 9f fa be a9 ad e7 3d 01 c3 ef 3e 63 dc 0e bf
       -0.4894954 0.1131242 0.46828464 -0.55805033
000050 70 0c 7f 3e a4 1b b1 be fb 22 aa bd c7 4f 2a 3f
       0.24907088 -0.345914 -0.08307453 0.6652798
000060 0c d0 ee 3e 9c e8 3d bc b7 eb 9d 3e de fb 2c bf
       0.46643102 -0.011591103 0.308439 -0.6757182
000070 c3 a8 13 3e ef f5 bf 3e 35 da 80 be db ab aa be
       0.14419846 0.3749232 -0.2516648 -0.3333424
000080 77 02 0c 3f 97 85 1e bf cc 9a 00 be 93 33 cb be
       0.5469126 -0.6192259 -0.1255905 -0.39687786
000090 8a d0 f6 bd 01 6a ad 3e a9 a2 4b bd 19 da f6 be
       -0.120514944 0.33869937 -0.04971567 -0.4821327
0000a0 e6 b6 a6 3d ab 02 1d 3f b2 13 1a 3f c4 da aa 3d
       0.08140354 0.61332196 0.601863 0.083425075
0000b0 fc 91 ee be 85 6f d7 be 7e 91 bb 3e a2 ba d6 3e
       -0.46595752 -0.4207727 0.3663444 0.41939265
0000c0 fc 7f 20 3f 7e 0c 7b bd f0 55 c8 be b7 64 c0 3e
       0.6269529 -0.06129121 -0.39128065 0.3757684
0000d0 01 13 9f bd 86 c4 52 3e 28 44 7b be 5f 50 15 3f
       -0.077672966 0.2058278 -0.24537718 0.5832576
0000e0 60 29 e5 3e c1 49 fe 3e 55 e0 45 3e a3 ff 85 3e
       0.4475813 0.49665645 0.19323857 0.26171598
0000f0 78 d0 05 3f ea ac cc 3e c8 bb 90 3c 37 8c 0b 3e
       0.52271223 0.39975673 0.017667666 0.13627706
000100 5d 88 2e 3f 66 db 38 3e 25 6e 1c 3c 82 1a f1 be
       0.68176824 0.18052444 0.009547745 -0.47090536
000110 21 f7 b6 3e 21 63 9d be 1b 98 52 3e 8c 97 de bc
       0.3573542 -0.30739692 0.20565836 -0.027171873
000120 2d f6 5a bf 9c b8 82 be e5 c7 88 3d a9 df f7 3e
       -0.85531884 -0.2553147 0.06678752 0.48412827
000130 29 6d eb bd c3 e9 88 be 99 ba 2a bf 4d f5 06 bf
       -0.1149543 -0.26740846 -0.66690975 -0.5271805
000140 a2 d3 69 be 18 d5 02 3e 5a 00 00 bf d6 4c 88 3e
       -0.22834638 0.12776601 -0.50000536 0.2662112
000150 b0 14 58 be 67 cb fd 3e 76 33 8c be 96 71 f2 bd
       -0.21101642 0.49569246 -0.27383012 -0.11838071
000160 dd ed e3 3e ba 8a 95 be 23 0d f8 3e 5e fc fa 3d
       0.44517413 -0.29207402 0.48447523 0.122551665
000170 7b 02 82 be 8b 3d b6 be 84 88 1a 3e e9 11 0c 3f
       -0.25392517 -0.3559383 0.15091139 0.5471483

cnn.0.1.bias f4 [32]
000000 3b 08 b9 3a 7f 80 d2 ba 82 ae a3 ba 3d 54 31 3b
       0.0014116833 -0.0016060023 -0.001248792 0.0027058267
000010 aa 8e cc ba 8b 1f 0f bb e0 d9 84 3b f0 de fe ba
       -0.0015606482 -0.002183887 0.004054293 -0.0019445103
000020 7b 8e 81 ba 5f 5d b8 bb bb 6e 2b 3a df 16 7b ba
       -0.0009884381 -0.005626365 0.00065396324 -0.0009578298
000030 1d 54 b3 bb f3 1c 80 bb 82 7a 75 3a 9e f0 a3 39
       -0.0054726736 -0.003909701 0.00093642634 0.00031269056
000040 68 48 d2 39 43 45 b6 3a b0 f3 a5 3a dc bd c1 ba
       0.00040108268 0.001390614 0.0012661126 -0.0014781314
000050 5b 32 bb ba c0 1c 8f ba 50 c7 06 bb 77 81 3d 3b
       -0.0014281975 -0.0010918602 -0.0020565577 0.0028916278
000060 01 4b db b9 7c e3 0d 3b 60 d0 b5 3b 56 4a 0e ba
       -0.00041826817 0.0021650484 0.005548522 -0.0005427947
000070 a1 1c 68 3a 93 9e 43 bb 7b 4e 95 b9 fc 3e 1a bb
       0.00088543637 -0.0029849156 -0.00028477967 -0.0023536077

cnn.0.2.weight f4 [32]
000000 fd 3c 63 3f c7 37 92 3f 51 ee 43 3f 87 72 70 3f
       0.88764936 1.1423272 0.76535517 0.93924755
000010 6f 69 fb 3e 30 82 86 3f 8c d8 5c 3f f7 26 66 3f
       0.49103877 1.050848 0.86267924 0.89903206
000020 09 ff 8b 3f af 07 a2 3f 3b 5f 57 3f ea f6 38 3f
       1.0937206 1.2658595 0.84129685 0.7225176
000030 22 fc 88 3f 25 94 82 3f 54 c3 7b 3f 6e dd 6a 3f
       1.0701945 1.020146 0.9834492 0.91744125
000040 72 eb 87 3f 85 8f 62 3f 31 28 56 3f e3 e5 8d 3f
       1.0618727 0.88500243 0.8365508 1.1085781
000050 1c 0d 91 3f de 92 92 3f a6 f7 79 3f 38 e0 6a 3f
       1.1332126 1.145107 0.97643507 0.9174838
000060 a3 8f 5b 3f 81 0f 67 3f d6 d4 b6 3f fa 23 54 3f
       0.8576605 0.9025803 1.4283702 0.82867396
000070 9b 24 92 3f 11 43 69 3f 8d c8 6c 3f 57 b4 56 3f
       1.1417421 0.9111796 0.92493516 0.83868927

cnn.0.2.bias f4 [32]
000000 e2 2f e0 3c 2d 1d bb bd 1d 39 92 bd 5b 28 d8 3d
       0.027366582 -0.09136424 -0.071398 0.10554572
000010 6e fe 87 be 78 40 64 bd 81 05 85 3e f5 d2 9f bc
       -0.26561302 -0.055725545 0.25980762 -0.019509772
000020 a0 ab a7 3e f7 48 1c 3f fe 1e 58 3e c1 86 40 be
       0.32748127 0.61048836 0.21105573 -0.18801405
000030 de 3c 18 3e 73 2c 95 3e 02 0a 83 be 77 dd a1 be
       0.14866969 0.29135475 -0.25593573 -0.31614277
000040 13 9f 9f be ef cf f1 bd 28 1c 9b bd 12 57 5a 3d
       -0.31176051 -0.11807238 -0.0757373 0.053305693
000050 c5 f2 b6 3d 13 e4 ee 3d b9 8b fa bd 22 9c 17 3f
       0.08933023 0.116645955 -0.12233681 0.59222615
000060 e8 1a 22 3c 71 77 17 3e 54 59 a2 bc 4f a3 e0 3d
       0.00989411 0.14791657 -0.019817986 0.10968649
000070 ca a8 7e 3e 0f f4 72 be 26 aa 6f bd a6 14 29 be
       0.24869075 -0.23725913 -0.058511876 -0.16511783

cnn.0.2.running_mean f4 [32]
000000 2a 47 27 be 8a d2 3d be be 9e 19 be 6c e7 a2 be
       -0.1633574 -0.18537346 -0.15001962 -0.31817186
000010 f9 72 0f be 17 16 b1 bc d2 37 00 bd e4 52 df 3e
       -0.14008702 -0.021616979 -0.031303234 0.43617928
000020 3e 11 81 3d 3d 77 bf 3e 87 e0 a4 3e 6c 15 c2 bd
       0.06302117 0.3739566 0.3220255 -0.09476742
000030 e5 78 0e 3d 42 67 ea 3e bc f0 c4 be 35 2a be 3e
       0.034783263 0.45781904 -0.38464916 0.37141576
000040 32 8a bb be a1 9b c0 3c 5d 6c bf 3e 99 81 61 3d
       -0.36628872 0.02351171 0.37387362 0.055055235
000050 2b b6 7c bd a1 de 17 3e 4c c7 0c 3e 37 62 a4 3d
       -0.061697166 0.1483102 0.137479 0.080265455
000060 69 20 4d 3e 7b 13 8a be 41 37 0c bd 5e 3e 70 3d
       0.20031895 -0.26967987 -0.03423238 0.058653228
000070 5b 9b 40 bd e0 c4 af bd 15 79 73 be da f3 cd 3e
       -0.04702316 -0.08582473 -0.23776658 0.40225106

cnn.0.2.running_var f4 [32]
000000 c5 0d 02 3e 55 5e 2a 40 36 12 6b 3e 25 75 aa 3e
       0.12700565 2.6620076 0.22956166 0.332925
000010 c1 4c cd 3d 8b 35 71 3e 3e 42 bc 3d ca 7f 23 3f
       0.10024405 0.23555581 0.09192322 0.63866866
000020 44 86 30 3f 2e bc a2 3e 83 a6 87 3e 12 c0 d1 3f
       0.68954873 0.31784195 0.26494226 1.638674
000030 df c5 f2 3d c5 07 36 3f d1 ab a5 3e 58 5a 4a 3f
       0.11854147 0.71105605 0.32357648 0.79044104
000040 e8 11 94 3e 66 d2 88 3e 3f e2 e1 3f f0 c2 93 3f
       0.2891991 0.2672302 1.764717 1.1543865
000050 03 5f 93 3f 7d 22 ef 3f fd 5b 0d 3e 52 83 d1 3c
       1.151337 1.86824 0.13804622 0.025575314
000060 cc 4d 97 3f 9a 5c 29 3e fe f2 30 40 a1 33 03 3e
       1.1820617 0.16539231 2.764831 0.12812664
000070 6a eb b5 3d d4 48 ae 3d 98 52 47 3e c7 4b 3d 3f
       0.08882792 0.085099846 0.19465101 0.7394375

cnn.1.0.weight f4 [32, 1, 3, 3]
000000 b8 32 b4 3e 57 f4 b4 3d df 9f 21 be d3 16 de 3b
       0.35194945 0.088356666 -0.15783642 0.006777623
000010 d1 12 d5 bd 08 8b af be 2b 7d 29 3e 96 79 82 3e
       -0.104039796 -0.3428576 0.16551654 0.25483388
000020 03 3d 60 bd e6 30 3e be 26 d7 8a 3e b6 ff 8c 3e
       -0.054745685 -0.18573341 0.2711727 0.27538842
000030 12 ea b0 be 48 9f 23 be 0e 75 85 3e 8a 76 5f bd
       -0.3455358 -0.1597873 0.26065868 -0.054556407
000040 24 25 ab be 82 1e 44 3e 6e 54 b4 3e 9c d1 fd bd
       -0.33426774 0.19152263 0.35220665 -0.123934954
000050 05 22 10 be 2d e9 39 3e 76 28 a6 bd ae a8 64 bb
       -0.14075477 0.18155356 -0.08113186 -0.003489058
000060 2e 77 37 be 11 e0 0a be 5d b0 11 be ba 9d 34 be
       -0.17916557 -0.13562037 -0.14227434 -0.17638293
000070 3f f3 93 3e b2 9c bc 3e c5 35 90 3e 16 f3 c7 3d
       0.2889652 0.368383 0.28166023 0.09763162
000080 c6 56 a3 be c9 5a d3 bd 8d d7 60 3e b9 65 9b be
       -0.3190214 -0.1032005 0.21957226 -0.30351046
000090 f7 7b 9b 3d af 54 b4 bc cb 7d 85 bd 66 54 1c be
       0.07592004 -0.022013037 -0.06518134 -0.1526657
0000a0 7c d7 cb 3d b4 47 83 3e 5d b2 4d be 29 4e af bc
       0.0995321 0.25640643 -0.20087571 -0.021399574
0000b0 d0 31 3b bd 9d 02 2a bd 55 29 89 be 06 b6 a4 be
       -0.0457018 -0.0415064 -0.26789346 -0.32170123
0000c0 52 02 ca 3e be 66 a8 3e 7e 80 07 be a6 c4 80 3e
       0.39454895 0.32890886 -0.1323261 0.2515003
0000d0 dd 90 9d be ae cb 4c 3e 38 27 d0 3d 1b f0 ca bd
       -0.30774584 0.19999573 0.101637304 -0.09909078
0000e0 e3 61 01 be 59 69 63 3e d0 7d db bd 53 32 88 be
       -0.12634997 0.22208156 -0.10717356 -0.26600894
0000f0 49 3e 89 bd b5 09 94 be 03 f5 3b be 15 ab 28 3e
       -0.06701333 -0.28913656 -0.18355183 0.16471513
000100 ce e1 39 be ed 71 ab bd 73 75 82 be a7 73 2e 3e
       -0.18152544 -0.08371339 -0.25480232 0.17036305
000110 46 db 9e 3e 7f 3c 35 3d 57 12 8f be 25 78 a0 3e
       0.31026667 0.044247147 -0.2794368 0.31341663
000120 ea a8 b0 be 17 c5 c4 bd 89 b1 a4 3e 78 48 5f be
       -0.3450387 -0.096079044 0.321667 -0.21804988
000130 15 52 6c 3d 21 43 37 3e 2c 30 99 be dc e4 c0 3d
       0.057695467 0.17896701 -0.29919565 0.094186515
000140 79 9b b2 3e 75 7c 80 bc ae d8 f8 be 5f 96 07 be
       0.3488424 -0.015684346 -0.48602813 -0.13240956
000150 e1 5d 18 be 89 e0 ac 3c f2 c5 a9 3c 8e 98 3c bd
       -0.14879562 0.02110316 0.02072427 -0.046043925
000160 25 63 f2 3e 5b 66 e6 3e e7 13 87 3e cf 6a 21 3e
       0.47341266 0.44999966 0.26382372 0.157634
000170 00 bb 68 3e 56 41 0b 3e 96 75 10 3e 41 e1 cd 3d
       0.22727585 0.13599142 0.14107355 0.100527294
000180 5e 57 85 be 2c ec a2 be 0e 84 af b9 b5 91 bb bd
       -0.26043218 -0.3182081 -0.0003347699 -0.09158651
000190 89 84 75 be 25 db 45 bd 1b 7f c3 3e ae 6e 2f be
       -0.2397634 -0.048304696 0.3818291 -0.17132065
0001a0 1a 38 24 3d 6a 14 1f be 38 0b 26 3e 2e 58 6f be
       0.040092565 -0.15535131 0.16215217 -0.23373482
0001b0 7c 8f 91 be 8a a8 95 be c7 bc 25 3e 07 77 3d be
       -0.28429782 -0.29230148 0.16185294 -0.18502437
0001c0 7d b9 da bd f1 77 53 3e e5 0e de bd bf 1d bf 3e
       -0.1067991 0.20651223 -0.10842685 0.37327382
0001d0 ff c5 11 3e a7 cb 87 3e ac 90 1b 3e 57 4d 80 be
       0.14235686 0.26522562 0.15191907 -0.25059006
0001e0 f9 4c 2b 3e a0 f1 82 be 9d 8c a3 be f5 f0 d7 3e
       0.16728581 -0.2557497 -0.31943217 0.42176023
0001f0 0d ea 26 be ea dd 5f bb 01 1a 4f be 61 6b a7 3e
       -0.16300221 -0.003415937 -0.20224763 0.3269911
000200 6b 67 0f 3e 69 58 cb bd d3 e0 5f be 8d 1a 80 3d
       0.14004295 -0.09928972 -0.21863107 0.06255064
000210 c2 37 3b 3e f2 45 8d be e2 fe 8c be 94 5b 1c 3e
       0.18282989 -0.27592427 -0.2753821 0.1526931
000220 cf c4 e0 3c 57 83 88 be ab 6c d1 3e 44 d4 6f be
       0.027437596 -0.26662704 0.4090322 -0.23420817
000230 ba 7a 94 bd 8d 6e b7 3e df 20 4f 3e cd c0 5a be
       -0.07249971 0.3582653 0.20227383 -0.2136261
000240 ce 61 98 3e 60 42 d8 3e 8b 8e bc 3d 55 52 bd 3d
       0.2976212 0.4223814 0.092068754 0.09244219
000250 f3 12 66 bd c4 34 07 3c be 03 56 be c7 e4 34 be
       -0.056170415 0.008252326 -0.20899865 -0.17665397
000260 50 22 bf be 98 ce 12 be d9 1d 66 3e 68 97 c0 bc
       -0.37330866 -0.14336622 0.22472323 -0.023509696
000270 1d d1 19 be 80 35 6e be 77 3f 3c 3e 32 47 ba be
       -0.15021177 -0.23262596 0.18383585 -0.36382443
000280 24 ab 07 be 22 db 4e 3d 7a 26 13 3e f7 ec 63 3e
       -0.13248879 0.05050195 0.14370146 0.22258364
000290 41 c6 79 3e 2d 58 bb bc f5 83 38 bd d6 80 76 3e
       0.24392034 -0.022869194 -0.04504772 0.24072585
0002a0 58 da 59 be 09 30 00 3e 06 12 9a bc 68 92 46 3c
       -0.21274698 0.12518324 -0.018807422 0.012119867
0002b0 9e ea 91 bc de 6a d2 3e a0 67 02 3e 6b 75 41 be
       -0.01781207 0.41097158 0.12734842 -0.18892448
0002c0 4c bf 68 3d cf a5 f2 3d 7e 6b 94 be 05 f5 b5 be
       0.05682306 0.11848032 -0.2898826 -0.35538498
0002d0 d8 fd 9d be b1 7d 82 be 64 15 1a be 26 26 4e bc
       -0.3085773 -0.2548652 -0.15047222 -0.0125823375
0002e0 8f 38 f5 bd 2d fc 09 3e bd 09 7a 3e 71 ab 15 be
       -0.11973678 0.13475104 0.24417777 -0.14616181
0002f0 61 1a 00 3f d6 b2 88 be 4c 31 d1 bd 8f 64 b0 be
       0.5004025 -0.2669894 -0.10214481 -0.3445172
000300 82 50 af 3e a9 cf 95 3e 6c 73 b2 be 64 eb a0 3e
       0.3424111 0.29259995 -0.34853685 0.3142959
000310 12 25 b2 3e fa ce 40 be 7d cf c4 3d ba 38 88 3c
       0.34793907 -0.18828955 0.09609888 0.016628612
000320 43 6b 49 3c 5a 74 d0 be 02 2b 2e 3e df f4 db 3c
       0.01229364 -0.4071377 0.17008594 0.026850162
000330 a3 60 80 be 02 91 af bd 4f ee c4 3e fb 61 87 be
       -0.25073728 -0.0857258 0.38463065 -0.2644194
000340 b5 78 46 3e 94 b5 44 be 5c 9c 02 bf 92 b5 a9 be
       0.19381984 -0.19209892 -0.51019835 -0.3314634
000350 96 40 e6 3e 23 56 48 bd 52 13 03 3e 79 ae 70 3e
       0.4497115 -0.04891027 0.12800339 0.23504056
000360 71 dd 70 3d d4 7d 98 3e fc ce 61 3d e0 15 f0 3c
       0.058804933 0.297835 0.055129036 0.029307306
000370 6d 71 5b 3e 8c f6 4d bd 3b 34 9d 3e c1 c2 9f be
       0.21429987 -0.050283954 0.3070391 -0.31203273
000380 5f 59 a8 3d 05 9a cd 3e c1 dc f1 bd ee 13 8a be
       0.08220171 0.4015657 -0.118096836 -0.2696833
000390 d7 11 8a bc e4 1c 0b 3d 1b 67 ca be 15 06 69 bd
       -0.01685421 0.0339631 -0.39531788 -0.056890566
0003a0 a7 d6 ab 3e 49 b3 55 be 9c 86 3e 3e 76 08 71 3e
       0.33562204 -0.20869173 0.18606037 0.23538384
0003b0 11 99 c7 3e b7 61 83 3e 24 ab 89 bd 39 48 00 be
       0.38983968 0.25660488 -0.067220956 -0.12527551
0003c0 1e 95 05 be 17 66 6e be 77 61 12 bf 11 9b 22 3d
       -0.13045165 -0.23281132 -0.5717997 0.039698664
0003d0 04 36 f1 bd b8 a9 45 bc 03 cd 21 be 49 17 ba 3e
       -0.11777881 -0.01206439 -0.15800862 0.3634589
0003e0 7c b9 b5 bd d8 29 e5 bd 54 58 a6 be 99 26 68 bc
       -0.08873269 -0.11189622 -0.32489264 -0.014169359
0003f0 33 5f 8b 3e 88 fb 7d 3e 1f fb ee 3e 40 53 95 be
       0.2722107 0.24802983 0.46675965 -0.29165077

cnn.1.0.bias f4 [32]
000000 a5 0c 17 bb a1 43 67 bb f5 17 3b ba da 7b 90 3b
       -0.0023048308 -0.0035288113 -0.0007137054 0.0044092955
000010 b3 5f ac ba d2 78 08 bb c2 46 c7 b7 d0 f7 03 3b
       -0.0013151079 -0.0020823968 -2.3755598e-05 0.0020136721
000020 7e 92 1b 3a 28 61 1a bb e7 81 31 3b 31 ab 1f 3b
       0.000593461 -0.0023556445 0.0027085484 0.0024363513
000030 25 09 8a bb ae 72 fe 37 f8 f0 86 b8 f7 58 e5 ba
       -0.004212516 3.0332561e-05 -6.434502e-05 -0.0017497827
000040 18 03 d2 ba 81 f8 ff b9 88 06 1a 3b b0 b0 fe 3a
       -0.001602265 -0.0004882254 0.0023502428 0.0019431319
000050 80 81 3f bb a3 14 a8 ba 10 17 76 3a 67 28 74 b9
       -0.0029221475 -0.0012823533 0.0009387592 -0.00023284704
000060 91 c5 ad ba d4 4a cd 3a 83 33 1a ba fb 96 72 ba
       -0.0013257732 0.0015662559 -0.00058823096 -0.0009254065
000070 68 01 b6 ba 36 29 95 39 a6 4d 5d ba 0e 1b e6 39
       -0.0013885917 0.000284502 -0.00084420515 0.00043889176

cnn.1.1.weight f4 [64, 32, 1, 1]
000000 f3 aa 76 be 37 a7 4a 3d 1d 26 33 be 27 1c bd be
       -0.2408865 0.049475875 -0.17495008 -0.3693554
000010 26 8e 5f 3d d0 b5 ae bc 9a 91 1f be fa f9 03 be
       0.054578923 -0.02132693 -0.15582886 -0.12888327
000020 a3 7a dd 3d d1 83 94 be 25 39 8f bc cf 91 84 bd
       0.10814407 -0.29006818 -0.017483303 -0.06473123
000030 15 0d ae bc 61 25 9b 3d 25 1f a6 bc fd eb 02 3e
       -0.021246472 0.07575489 -0.020278523 0.12785335
000040 4f a7 7d be aa 1a 4a bd d0 f5 b6 bc 02 82 ed 3c
       -0.24770854 -0.049341835 -0.02233401 0.028992657
000050 f4 44 09 bd 48 b6 3b 3b 16 f8 40 3e 70 9f 3e 3e
       -0.033513024 0.0028642584 0.18844637 0.18615508
000060 36 84 ac bd 29 83 36 be ad 1e 14 be 5b b9 ba 3d
       -0.08423655 -0.17823471 -0.14464827 0.09117385
000070 fc 70 aa be 79 29 88 be 60 a7 7e bd 83 35 08 3d
       -0.33289325 -0.2659414 -0.06217134 0.033254158
000080 41 7d 07 3e f9 7c a7 be 6e 8e 9c bc 1f 98 7b 3d
       0.13231374 -0.32712534 -0.019110885 0.06142437
000090 de fe 56 be c3 72 c6 3c 85 de ee 3b 4f 3e a3 3b
       -0.20995662 0.024224645 0.00728971 0.004981793
0000a0 92 41 ca bc 3c e7 55 3d 46 da 86 bd ee 4a f1 be
       -0.02468947 0.052222475 -0.06584601 -0.4712748
0000b0 ad 84 2e be 0d 51 8b be 8c 79 f6 bd 56 7d 05 be
       -0.170428 -0.27210274 -0.12034902 -0.13036093
0000c0 0d b6 a8 bd e9 34 0a be d3 be d0 3d de c1 ca bd
       -0.082378484 -0.13496746 0.10192647 -0.099002585
0000d0 e3 d3 d5 3d a3 46 ee bb 86 86 aa bb 1e 30 82 bd
       0.10440805 -0.007271604 -0.0052040247 -0.06356834
0000e0 83 e8 1e 3f dc 66 cd bd 34 e1 74 3d 34 48 d2 3d
       0.62073535 -0.100293845 0.059785083 0.10267678
0000f0 16 04 77 3d dc 3f a6 bd 70 bb cb 3c 11 96 d3 3d
       0.06030663 -0.08117649 0.02486965 0.10331357
000100 28 22 80 be 6b b9 fc 3e bf 7e db 3c 07 21 4e bd
       -0.2502606 0.49360213 0.026793836 -0.050324466
000110 8b c9 27 3e 92 cb ad be de 9e 2e be 65 fb 7a be
       0.16385476 -0.33944374 -0.1705279 -0.24509962
000120 ff 6d d8 be ea dd 65 3d 79 c0 12 be b4 07 08 bb
       -0.4227142 0.056119837 -0.14331235 -0.0020756545
000130 fa 56 0b be 35 38 7e 3e a6 4e af 3c 2c 32 cc bc
       -0.13607398 0.24826129 0.021399807 -0.024926268
000140 e3 43 a0 3d ca 19 87 be be cd 30 bc d6 6e 07 3c
       0.07825448 -0.26386863 -0.01079124 0.008266171
000150 d0 99 b7 bd ee e6 3b 3e c0 7c 32 3d f1 54 79 bc
       -0.08964884 0.18349811 0.043576002 -0.0152180055
000160 8a 7d 00 3e 52 40 46 be bc eb 1d 3e d9 17 e4 3d
       0.1254789 -0.19360474 0.15421957 0.11137361
000170 7a 50 3b bd f9 ec 72 be 87 ce 2e 3d 6f 42 66 3d
       -0.045731045 -0.2372321 0.04267743 0.0562157
000180 4a 21 a9 3d 97 05 55 bd e5 54 1e bc 48 c1 b2 be
       0.082583025 -0.052007284 -0.009663795 -0.34913087
000190 4a 19 1b 3c 24 7e b2 3d 8b 2e a7 3c bf 2d 6c be
       0.009466479 0.08715466 0.020407936 -0.23064326
0001a0 fe f3 f3 bd 32 75 34 be 40 87 14 3e c4 15 d0 3c
       -0.11911772 -0.17622831 0.14504719 0.025401004
0001b0 7a ec 21 be 00 b4 b5 3e d8 09 ff bd 16 ad 97 3e
       -0.15812865 0.35488892 -0.124530494 0.29624242
0001c0 2d 08 12 be 29 f2 fc 3c 91 dd 80 3d 0f cf 44 be
       -0.14260931 0.03087719 0.062922604 -0.19219612
0001d0 7d b9 83 3d c1 4e 5e be 95 39 94 be be ca 35 bd
       0.064318635 -0.2170973 -0.28950182 -0.044382803
0001e0 b5 8b f4 3d e1 5a 0a be 26 18 53 3e 66 97 08 3d
       0.119407095 -0.1351123 0.2061468 0.03334751
0001f0 bd 37 91 be e8 68 81 bc 7d 9d 9f 3e c8 7a 9d 3d
       -0.28362837 -0.015797094 0.31174842 0.07689434
000200 94 c4 c6 3d ac 25 25 be 6a 5e 13 3e de ac e5 3d
       0.09705463 -0.16127652 0.14391485 0.112146124
000210 3e b5 09 bd a2 d4 71 3e 4f cf f2 bc e8 7e c1 3e
       -0.03362011 0.23616269 -0.029639868 0.37792134
000220 2e 29 a7 3d 0c e5 b3 3b 01 74 6e 3e 28 2d bd 3d
       0.08162151 0.005489951 0.2328644 0.092371285
000230 fa 1b 19 3d 6c b9 17 be ae 89 a3 be 87 ee a0 3e
       0.037380196 -0.14816827 -0.3194098 0.31431982
000240 a1 4b bb 3e 57 a9 8e bd ae 37 64 3e 51 e3 f6 bd
       0.36581138 -0.06965893 0.22286865 -0.12055076
000250 1a 6e f5 3c a3 08 a8 3d fb a4 42 bc ac 78 0e 3e
       0.029959727 0.08204772 -0.011880155 0.1391322
000260 c8 b5 7a bc e4 cd c5 3c 98 35 6e 3d 27 5d 71 3d
       -0.015302129 0.024146028 0.05815658 0.058926728
000270 1b b6 12 bd ca 6e 4e 3e 7a f5 c4 bc 76 95 ac be
       -0.0358182 0.2015945 -0.024042834 -0.3370778
000280 b2 15 bc bd a5 0c 07 bb 04 f6 13 be 68 9d b8 bd
       -0.091838256 -0.0020606902 -0.14449316 -0.09014398
000290 ab b7 65 3d 93 19 4c 3d a1 08 0a 3c 96 cc 41 bd
       0.056083363 0.049829077 0.008424909 -0.04731425
0002a0 a5 58 12 3e b4 18 44 be c6 55 e3 3d a6 73 f9 3d
       0.14291628 -0.19150048 0.11100344 0.12180261
0002b0 d0 f5 db 3d ae fd bc 3d a8 26 aa 3d bf 32 bd 3e
       0.107402444 0.09228073 0.08308154 0.3695278
0002c0 41 dd 91 3a c4 58 30 be 87 4b 9c 3e ba 09 a3 be
       0.0011128561 -0.17221361 0.30526373 -0.31843358
0002d0 bc 50 36 3d 08 69 8c 3e a9 4d f7 bd 61 2e cb bd
       0.044510588 0.27423882 -0.120753594 -0.099209554
0002e0 34 15 76 3d 45 2c 1e 3e 10 e5 1c 3d b1 9f f2 3d
       0.060078815 0.15446575 0.03830439 0.11846865
0002f0 2c b9 71 be 1f cd 88 3e cf e1 fd 3d 37 df ab be
       -0.23605794 0.26718995 0.12396585 -0.33568737
000300 4b 0d 19 bd e1 49 6c 3e 9c e3 db 3c 15 ac 58 3e
       -0.037366193 0.23075058 0.026841931 0.21159394
000310 9a 22 bc 3d 8c 0b 92 be 67 d2 cb 3d 06 d4 b2 3d
       0.09186287 -0.28524435 0.099522404 0.087318465
000320 c0 70 a3 3c 80 d7 9b bc bf 3d cd 3d d4 ff 51 3e
       0.019951224 -0.019023657 0.10021543 0.20507747
000330 79 10 7b bd 04 d7 c3 bd 63 46 71 3e b7 24 c8 bd
       -0.061295006 -0.09562495 0.23562007 -0.09772628
000340 82 68 3a 3e 2c ef ba be ac b5 5c 3d 5f c6 6c be
       0.18203929 -0.365106 0.053884193 -0.23122548
000350 64 91 96 be 58 ab 9d bc 9d 0c 3e 3e ff 45 0b 3e
       -0.294078 -0.019246742 0.18559499 0.1360092
000360 90 49 68 3d 17 a4 d1 3d e3 38 f7 3d 94 ab 8f 3d
       0.05671078 0.10236376 0.12071397 0.07015148
000370 49 40 c7 3d 04 d4 97 3e 5c 5d ab 3e 76 a1 a8 bc
       0.09729058 0.29653943 0.33469665 -0.020584803
000380 eb 31 25 3e 24 d3 86 bd 1c da 4f 3d 3c 8a 22 be
       0.16132323 -0.06583241 0.050745115 -0.15873045
000390 f6 f7 fe 3d 5e 52 d9 3d 40 fc d2 be de 23 04 3e
       0.124496385 0.106114134 -0.41208076 0.12904307
0003a0 36 50 8b 3d e0 92 19 be ee 96 9c bd 34 fe c9 3b
       0.068024084 -0.14997435 -0.07645975 0.0061643366
0003b0 63 46 54 3e 13 e8 3f 3e 3b 77 ed 3c 71 a4 59 be
       0.20729975 0.18740873 0.028987518 -0.21254136
0003c0 a8 a5 8e 3e 41 2e 08 be fe e6 63 bd b8 8d 3f be
       0.2786076 -0.13298894 -0.055640213 -0.18706405
0003d0 1a 82 02 3e 8d c7 1d be 5e d2 6b be 33 5d 58 3d
       0.12744942 -0.15408154 -0.23029467 0.052823257
0003e0 c3 94 aa 3d 07 8e ae bd 0a 88 07 3e 19 e6 75 be
       0.08329155 -0.08523183 0.13235489 -0.24013557
0003f0 6b 46 0f be 8f 7b 56 3d 90 13 ec bd db aa e7 3d
       -0.13991706 0.05236393 -0.11527169 0.11311885

cnn.1.1.bias f4 [64]
000000 be 27 b6 ba a7 f1 00 ba e7 20 e5 38 8d 77 f4 39
       -0.0013897342 -0.00049188215 0.000109256995 0.0004662838
000010 bc 01 51 3a f9 32 84 b9 52 05 1f 3a 70 6e 58 ba
       0.0007972976 -0.0002521498 0.00060661614 -0.00082562026
000020 6e cd a6 3a 8d 23 38 3a 6d d6 17 3b cd 94 93 ba
       0.0012726018 0.00070243404 0.002316858 -0.0011259556
000030 2a 8d be b8 6c d1 b2 39 22 82 09 bb da 78 fd 3a
       -9.0862e-05 0.00034106837 -0.0020982106 0.0019338385
000040 d6 eb 17 bb 3d cc 73 3a b3 91 0e 3a 7b d4 8e 3a
       -0.002318134 0.0009300148 0.0005438581 0.0010897064
000050 9b d5 2b bb 8c dd 57 3a b7 4f 4a 3a 23 c4 1f 3b
       -0.0026219848 0.0008234612 0.0007717567 0.0024378381
000060 c0 74 4d ba 0c 84 4f 38 2a 6f 1d ba f3 c4 62 ba
       -0.00078375265 4.9475624e-05 -0.00060056394 -0.00086505635
000070 d0 c7 0b 3a eb 08 f8 ba 7d ff 88 b9 aa 03 ea ba
       0.00053322036 -0.0018923556 -0.00026130295 -0.0017853875
000080 9c 6b b7 ba ee 07 b0 3a 7f 2f 0c 39 d0 bd a6 ba
       -0.0013993862 0.0013430098 0.00013369134 -0.0012721363
000090 13 b6 db 3a 60 0d 41 bb 30 36 e2 ba e5 7c 35 3a
       0.0016762636 -0.0029457435 -0.0017258581 0.0006923213
0000a0 ac 96 94 ba 00 79 e4 39 50 b2 e4 b8 8e 67 c2 ba
       -0.0011336408 0.000435777 -0.000109051005 -0.0014831887
0000b0 35 5c df ba 51 43 ed 3a 66 1d 32 ba 1e ee 82 39
       -0.001704103 0.0018101727 -0.0006794542 0.00024972943
0000c0 aa 5f 63 ba c9 c1 5c bb 93 fd 38 ba 70 5c fc ba
       -0.0008673618 -0.003368484 -0.00070568285 -0.0019253623
0000d0 d3 9a 06 ba ba 75 a3 3a 6f 20 9a ba fd 50 ae 3a
       -0.0005134765 0.0012470998 -0.0011758934 0.0013299283
0000e0 80 0c 91 39 30 de d3 3a 9d 92 dc ba bc a7 04 3a
       0.00027665868 0.001616424 -0.0016828362 0.0005060395
0000f0 f1 9a ee 39 55 b5 9e 39 87 b0 c5 b9 3a 7b 3f 38
       0.00045510338 0.0003027121 -0.0003770629 4.5652712e-05

cnn.1.2.weight f4 [64]
000000 01 ff 75 3f e8 0e 93 3f 32 94 56 3f 24 93 7a 3f
       0.9609223 1.1488924 0.8381988 0.9788077
000010 28 f6 47 3f 7b c0 83 3f 12 ed 83 3f ec e6 83 3f
       0.7810998 1.0293115 1.0306723 1.0304847
000020 16 a2 88 3f 8b ba 81 3f 2c 07 5c 3f 89 12 8c 3f
       1.0674465 1.0135053 0.85948443 1.0943156
000030 7e f0 60 3f 29 f3 5d 3f 88 7d 5c 3f 1e 46 73 3f
       0.8786696 0.8669916 0.86129045 0.95028865
000040 b7 43 54 3f 44 24 50 3f a9 d0 54 3f 9f 49 87 3f
       0.82915825 0.81305337 0.8313089 1.0569342
000050 d6 84 8f 3f 0a d0 67 3f 0e ee 87 3f ff c8 87 3f
       1.1212413 0.9055182 1.0619524 1.0608214
000060 55 b0 60 3f 14 7d 53 3f e7 71 5e 3f 61 05 64 3f
       0.8776906 0.8261273 0.8689255 0.8907071
000070 84 24 69 3f 15 90 ad 3f 16 fd 60 3f 64 6f 86 3f
       0.91071343 1.3559595 0.8788618 1.0502744
000080 04 d8 8a 3f da 86 69 3f b2 92 90 3f 4f c4 6e 3f
       1.0847173 0.9122139 1.1294768 0.93268293
000090 b2 94 59 3f b5 cd 4f 3f b5 67 8a 3f da 6d a6 3f
       0.84992516 0.8117326 1.0812899 1.3002274
0000a0 fb f9 61 3f db 3b 76 3f db 2d 46 3f f7 e9 61 3f
       0.88272065 0.9618508 0.7741372 0.8824763
0000b0 49 ca 73 3f 94 c8 83 3f 6b 18 69 3f 04 a8 73 3f
       0.9523054 1.0295587 0.91052884 0.95178246
0000c0 64 93 62 3f d2 ad bb 3f e2 da 6d 3f d6 5f 85 3f
       0.8850615 1.4662421 0.92912114 1.0419872
0000d0 45 e9 70 3f d7 76 7a 3f 64 72 6a 3f 98 95 83 3f
       0.9410594 0.97837585 0.91580796 1.0280027
0000e0 31 9c 5b 3f 01 67 94 3f 4a cc 73 3f 39 c8 5e 3f
       0.85785204 1.1593934 0.95233595 0.87024266
0000f0 81 1a 54 3f 40 3a 73 3f 1b 8c 50 3f a9 4f 50 3f
       0.8285294 0.9501076 0.81463784 0.8137155

cnn.1.2.bias f4 [64]
000000 0c f6 1c 3d e2 cb 13 bd 97 32 98 bd d3 6a 56 3e
       0.038320586 -0.03608311 -0.07431524 0.20939188
000010 e3 65 d4 be ab e5 50 3e e9 21 68 3e ca 55 18 3d
       -0.41483983 0.20400111 0.22669186 0.03719119
000020 9a 6b eb 3e 4f 4c 87 3e a5 37 02 3d b4 e2 f0 3d
       0.4598053 0.26425406 0.031791348 0.1176199
000030 32 1c 56 bd 53 71 b4 bd 7d b1 0b 3d 51 cd d6 3d
       -0.052272983 -0.088106774 0.034104813 0.1048838
000040 0b b4 76 be b5 63 6e bd 52 67 0d 3e 7b f5 ed 3d
       -0.24092118 -0.058200557 0.13808945 0.11619087
000050 c3 47 cc 3e ce ef 45 be ce dc 86 bd d4 24 e2 3e
       0.398985 -0.1932976 -0.06585084 0.44168723
000060 0f e2 3a be a3 cd dc be 6b a3 6c be 46 43 9d 3d
       -0.18250297 -0.43125638 -0.23109214 0.07678847
000070 55 f1 66 be e5 52 2a 3f 2e 8c cf 3c 66 4a e2 3e
       -0.22552998 0.66532737 0.025335398 0.44197387
000080 8e ea 08 3f dc 38 c6 bc 1c 63 26 3f d3 6d 67 3e
       0.534829 -0.024197035 0.6499498 0.22600488
000090 e8 d6 5d be 28 06 4c be b7 48 63 3e 00 3b 36 3e
       -0.21664011 -0.19924223 0.22195707 0.17795944
0000a0 0c 79 a9 be 8b c9 64 be e9 12 00 be 62 4b 9b bc
       -0.33100164 -0.22342508 -0.12507214 -0.018956844
0000b0 43 3e 3e be 59 88 04 3e 2d 05 de 3d 42 b1 07 be
       -0.18578438 0.12942638 0.10840831 -0.13251212
0000c0 be 21 29 3e b3 ac de 3e ee 1b aa bc 95 d3 e9 3c
       0.16516778 0.43491134 -0.020765271 0.028543273
0000d0 c5 62 25 3e a6 65 6a 3e 86 0c 2b be 8f 1f 2f 3e
       0.16150959 0.22890338 -0.16703996 0.17101882
0000e0 66 92 8d 3d ae 13 cf 3e 28 b7 ce 3c 67 aa 4f be
       0.06912689 0.40444702 0.02523382 -0.20279847
0000f0 5a 28 21 bd 98 9d 8c be 5e 4f 9b bd 4a b2 0a be
       -0.039345123 -0.27463984 -0.075834975 -0.13544574

cnn.1.2.running_mean f4 [64]
000000 2c 29 f9 bd 20 47 81 3e f5 72 d6 ba b0 34 be 3d
       -0.12166056 0.25249577 -0.0016361164 0.09287393
000010 fb 04 87 3e 86 1c 72 3e 7c 5e ca 3d d6 ca 27 3e
       0.26370987 0.23643693 0.09881303 0.1638597
000020 ee 35 00 be 21 4c 68 3d 1d f4 56 3c f1 50 92 bd
       -0.12520573 0.056713227 0.013119725 -0.071443446
000030 45 12 f7 bd 05 8a 1c 3e c2 93 b1 bc 28 93 b5 be
       -0.120640315 0.15287025 -0.021676902 -0.35463834
000040 93 f2 15 be dc 73 31 be 4d 20 ac bd 5a 0b 34 3e
       -0.14643316 -0.17329353 -0.084045984 0.17582455
000050 48 33 10 3d 76 c3 79 bd ed f3 78 3d a3 56 c7 bd
       0.035205156 -0.06097742 0.0607795 -0.097333215
000060 1f fe 15 3e b4 7a a2 bd 01 2b 8d 3d 64 0d 5c 3c
       0.14647721 -0.0793356 0.06892968 0.013430927
000070 6a 43 39 be f4 0a 61 3e 5e e9 24 be 71 bb 22 be
       -0.18092123 0.21976835 -0.16104648 -0.15891816
000080 b4 a5 0d 3d 56 5e 79 bd 6f d8 49 3e c3 55 52 bd
       0.034581855 -0.06088098 0.19711469 -0.05135132
000090 7f 24 06 be b2 9b 61 bd 6c 11 8b 3c 1d 17 d5 3c
       -0.1309986 -0.055080123 0.01697608 0.026011998
0000a0 08 ec b2 3e a6 09 69 3e 68 ad ca bd d4 8d 02 be
       0.34945703 0.22757587 -0.09896356 -0.12749416
0000b0 9d c7 88 3d 91 6e d1 bc c0 b7 17 be 28 8d 44 be
       0.06678698 -0.025565417 -0.14816189 -0.19194472
0000c0 f6 f5 ad bc bc 37 65 be 14 f2 2f be 62 c5 9e 3e
       -0.021235447 -0.22384542 -0.17182189 0.31009966
0000d0 78 d3 fa bd 41 cd 78 be 92 3c e1 bc 05 49 ed 3b
       -0.12247366 -0.24297048 -0.027494702 0.0072413706
0000e0 37 e0 1e 3d 3b 58 e4 bd 04 69 59 bd cb 6a 58 3d
       0.038788047 -0.11149641 -0.053078666 0.05283622
0000f0 d6 9a 09 3e c3 b3 39 3d dd b7 46 be a6 83 1a bd
       0.13437971 0.04533745 -0.19406076 -0.037723206

cnn.1.2.running_var f4 [64]
000000 81 27 16 3d 2b 20 8d 3d da 38 87 3d 22 76 9a 3c
       0.036658768 0.06890901 0.066026405 0.018855158
000010 0b 9d 50 3d 1e b4 e1 3d ec d6 bf 3d 9c 28 97 3d
       0.050931018 0.11020683 0.09367165 0.073807925
000020 65 a9 7d 3d ea cc 31 3d c6 34 76 3d 3c 54 93 3d
       0.061929125 0.043408312 0.060108922 0.07193801
000030 cc 1f 84 3d e1 a4 21 3d 14 e6 9b 3d 05 f8 b9 3d
       0.06451377 0.03946388 0.07612243 0.09080509
000040 8d 2f 77 3d 86 b5 4b 3d ad c8 0a 3d 5d 92 8a 3d
       0.060348082 0.04973366 0.033882786 0.06766198
000050 77 86 4b 3d 0f 6f 5d 3d 4a c5 51 3d c3 42 84 3d
       0.049688783 0.05406099 0.05121354 0.06458046
000060 b3 5c 93 3d d5 15 a1 3d 3c 93 33 3d 2d a7 88 3d
       0.07195415 0.07865492 0.043841586 0.06672511
000070 06 87 8e 3d 3b 9b 10 3e d3 73 90 3d 9f 59 c0 3d
       0.069593474 0.14121716 0.07053342 0.09392094
000080 16 9f 97 3d 22 5c a7 3d 5d 80 aa 3d 49 f7 62 3d
       0.0740339 0.0817187 0.083252646 0.05541161
000090 08 26 7b 3d 9a 8f 15 3d 4c bd 54 3d 70 b6 ee 3d
       0.061315566 0.036513902 0.05193834 0.11655891
0000a0 65 6b 62 3d 50 92 43 3d c6 51 e8 3c d4 d5 60 3d
       0.0552782 0.047746956 0.028359305 0.054891422
0000b0 fc 26 77 3d 74 73 7f 3d 17 2e 71 3d 37 00 47 3d
       0.060339913 0.062365964 0.058881845 0.04858419
0000c0 f9 39 16 3d e7 4f 9f 3d 06 56 a7 3d a8 6c 6d 3d
       0.03667638 0.07778912 0.081707045 0.05796495
0000d0 0e 8e 0a 3d 2a bc 9a 3d 22 e1 67 3d 95 e9 a1 3d
       0.03382688 0.07555421 0.056611188 0.0790588
0000e0 55 a7 3f 3d ec bd a1 3d 96 92 48 3d 6d f4 ac 3d
       0.04679044 0.07897553 0.04896792 0.08445058
0000f0 2b a7 85 3d 02 0e 5d 3d 55 8c 11 3d ad 50 31 3d
       0.065260254 0.053968437 0.03553422 0.04328983

cnn.3.0.weight f4 [64, 1, 3, 3]
000000 c9 67 e5 3e e6 b8 12 3e 86 9a 18 3e c3 ba 9f 3d
       0.44805744 0.14328346 0.14902696 0.07799294
000010 64 c9 07 be a2 50 89 3d 5d 4b 42 bd 8a 23 84 be
       -0.13260418 0.067048326 -0.047435153 -0.25808364
000020 d5 19 43 be 76 16 ab be e3 46 48 bd 2c 77 40 be
       -0.19052823 -0.33415574 -0.048895728 -0.1879546
000030 37 4f 01 3e 32 8c b2 be 52 95 1f be 59 08 1b 3e
       0.12627874 -0.34872586 -0.15584305 0.15139903
000040 50 2a eb 3e 72 57 86 3e 12 69 96 be 5a b3 1b be
       0.4593072 0.2623859 -0.29377037 -0.15205136
000050 5e 2b 9c 3e 03 4f 95 3d 51 ba 89 be 89 c2 6d bc
       0.30501837 0.07290461 -0.2689996 -0.014511713
000060 f0 7e ee bc 4f 87 47 be fc 15 6d be 2d 60 53 be
       -0.029113263 -0.1948521 -0.23152918 -0.20642157
000070 1d 43 cd bd 67 0a 0d 3e bb 8b b7 be a2 3f cc 3e
       -0.100225665 0.137735 -0.35848793 0.39892298
000080 e0 f3 59 3c 95 61 cf 3d c6 e9 91 3e 6b b3 21 bd
       0.013302773 0.10126034 0.28498667 -0.039477747
000090 31 a6 0d be c5 72 43 bd 47 b7 be be 12 2f 21 3e
       -0.13832928 -0.047716875 -0.37249205 0.15740612
0000a0 e6 76 48 bb 03 4b 90 3d 18 50 9b be 02 9b 94 be
       -0.0030588447 0.07045557 -0.30334544 -0.29024512
0000b0 da 0f 94 3c 91 ff d8 3e 23 14 3c bd db 83 29 3e
       0.018073965 0.42382482 -0.04591764 0.16554205
0000c0 0b 4e a6 3e e0 29 97 bd 53 6f b8 bd 40 3d 8b be
       0.32481417 -0.07381034 -0.090056084 -0.27195168
0000d0 05 82 15 be 40 d0 cc be a3 f3 14 be 07 7d 6a be
       -0.1460038 -0.40002632 -0.14546065 -0.22899257
0000e0 84 67 f2 be 36 da ad 3d 9a 33 c1 3b 39 16 3b 3e
       -0.473446 0.08488886 0.005896044 0.18270196
0000f0 43 df f0 3d 35 2a 9a 3e 5e 95 3b 3e af fa d7 3e
       0.11761334 0.30110326 0.18318698 0.42183444
000100 18 3e 1a be d8 af b9 3e c0 7d a0 bb 75 cc 18 3e
       -0.1506275 0.3626697 -0.004897803 0.14921744
000110 0c 86 3c 3d 71 49 89 be 02 69 3e be b3 cf c6 be
       0.046026275 -0.26813844 -0.18594745 -0.38830337
000120 3a 52 49 3e 04 e9 ab 3e 98 94 97 3e c5 0c a5 3e
       0.19660273 0.33576214 0.29605556 0.32236305
000130 2e 55 67 bd 9e 6b 10 be 0c b1 35 be 06 ff cc be
       -0.056477718 -0.14103553 -0.1774332 -0.40038317
000140 cd be d3 be a8 eb 72 3e 22 cf 40 3d 8e 4f 06 bc
       -0.41356507 0.23722708 0.047072537 -0.008197678
000150 05 5c a0 3e 30 d3 92 3e d8 e2 8f be fe 04 8c 3d
       0.31320205 0.28676748 -0.28102756 0.0683689
000160 49 1c 86 be 8a 7a 87 be 34 f6 4b bd 4b 24 c8 3d
       -0.26193455 -0.26460677 -0.049795344 0.09772547
000170 41 44 98 3d b5 72 28 3e 8f 1c 1d 3e fa f9 40 3d
       0.074348934 0.16450007 0.15342925 0.047113396
000180 ba bb 48 3e b9 59 ae 3e 68 09 12 3e e3 be 1f 3e
       0.19602862 0.34052828 0.142614 0.15600161
000190 cd cb f5 3d 70 99 a7 3e 51 ab bf bd 2d a6 8d 3e
       0.120017625 0.3273425 -0.09358848 0.27665845
0001a0 bc 30 51 3c cb 6a 9e be ef b1 cd be fe 53 99 be
       0.012767967 -0.30940852 -0.40174815 -0.29946893
0001b0 7e cf 8c 3e ef 21 c1 be 13 61 85 39 31 71 d5 3e
       0.27502054 -0.37721202 0.00025440063 0.4168792
0001c0 f5 c5 82 be 4e eb a9 bd 0b e4 16 bd 95 15 81 3e
       -0.25541654 -0.08296834 -0.036838572 0.25211778
0001d0 21 fa 46 3e 8d bb 98 bc ad f1 7a be 30 4c c3 bd
       0.19431354 -0.018644119 -0.24506254 -0.09536016
0001e0 31 7d c1 bc 3c 16 80 be ed 5c 64 3d 54 27 2d be
       -0.023619266 -0.25016963 0.055752683 -0.16909534
0001f0 af 04 c3 bd 51 21 3c be 18 7c a8 bd 9f e2 05 be
       -0.09522378 -0.18372084 -0.08226794 -0.1307473
000200 04 5c 9f 3e a3 1a 50 3e 47 ac b3 3e b1 2d 8a 3e
       0.3112489 0.20322661 0.35092375 0.26987985
000210 65 bb 8e 3e 93 6c 19 3d 9b 20 04 be 02 5a b8 be
       0.27877346 0.03745706 -0.12903063 -0.3600617
000220 ca 40 68 be c8 ab f7 bd d0 12 19 be e4 ab 3a be
       -0.22680965 -0.120933115 -0.14948583 -0.18229634
000230 c6 0b 7e 3e a5 2e d6 3e b6 1f b1 3e be 9f 1a be
       0.24809179 0.41832462 0.34594506 -0.151
000240 c1 7f b0 3e 74 37 28 3e b9 79 c8 3d 3f f9 03 be
       0.34472468 0.16427404 0.09788842 -0.12888049
000250 97 57 b6 be 37 c1 e6 3d ef 92 07 3e 4d 3f 8e be
       -0.356137 0.112673216 0.13239644 -0.2778267
000260 9f cb 9c 3e 4a 12 e1 bd c2 04 61 be 41 46 f6 3d
       0.306241 -0.109898165 -0.21974471 0.120251186
000270 93 cd 98 be 95 33 c8 bd 34 09 5b be 50 10 63 be
       -0.2984434 -0.097754635 -0.2139023 -0.22174191
000280 c9 43 09 3e b4 bb b5 3d 29 7d 59 3e 28 5f bb 3e
       0.13404764 0.08873692 0.21239151 0.36596036
000290 52 c6 78 bd 93 1f df 3d ee 34 2c be 05 da 30 3d
       -0.060736008 0.10894694 -0.16817066 0.04317667
0002a0 ac 46 ba be 9e 4d 1e bd 35 65 17 be 41 f2 b0 be
       -0.36382043 -0.03864824 -0.14784701 -0.34559825
0002b0 e7 3a d1 be dc 87 0b 3e 03 5b da 3d 17 cb 59 3e
       -0.4086525 0.13626045 0.1066189 0.21268879
0002c0 aa 61 3f 3e 8d ec b7 3e e4 e1 79 be 21 bc 57 3e
       0.186896 0.3592266 -0.24402577 0.21067859
0002d0 48 c1 22 be 81 44 a8 3e 6b 97 17 3e d3 e3 00 be
       -0.15894043 0.32864764 0.14803855 -0.12586908
0002e0 02 2f 9b 3e 50 7d e5 3e fc d6 c7 be 7b 71 88 be
       0.30309302 0.44822168 -0.39031208 -0.2664908
0002f0 b7 09 02 be b3 5c 2e be 79 87 93 be 7b 97 c5 be
       -0.12699018 -0.1702755 -0.28814295 -0.38592133
000300 97 84 ad 3d 55 00 27 3e dd b8 ae be b2 13 81 3d
       0.08472555 0.1630872 -0.34125414 0.06302585
000310 27 c6 2a 3e 2c 75 48 be 6d 42 93 be 47 e1 ae be
       0.16677152 -0.19575948 -0.28761616 -0.34156248
000320 ff ff 20 be 82 7b c4 3d c6 35 b6 be 1b b9 e5 3d
       -0.15722655 0.0959387 -0.355879 0.11216947
000330 71 f2 e3 bd 32 93 d5 3e 30 d4 96 3e 08 89 af be
       -0.111302264 0.41713864 0.2945876 -0.34284234
000340 5d 12 5f be 2d b6 88 be 4d 76 6d 3d eb 31 5a 3d
       -0.21784349 -0.2670149 0.05797415 0.05327026
000350 24 5b 9d 3e 63 a4 17 3d 1d 4b 05 bd 1a 60 01 3f
       0.30733597 0.037022006 -0.032542337 0.50537264
000360 11 e3 8d be e0 a1 83 be df 84 96 bd 89 30 8f be
       -0.277123 -0.25709438 -0.07349562 -0.27966717
000370 83 92 2e be 8c b4 51 bd 98 9e 86 be 6b 18 8f 3d
       -0.17048077 -0.051197574 -0.26292872 0.06987079
000380 87 cd c1 bd e9 3e 15 3e 1d cc 43 3e 69 b7 ca 3e
       -0.09463029 0.1457478 0.19120832 0.39593056
000390 7f 69 d0 3d 42 19 20 be 74 b6 b6 3e fb db 13 3e
       0.10176372 -0.15634635 0.35686076 0.14439385
0003a0 82 83 76 be 7e f8 1b 3e a2 55 25 3e 97 13 1c 3e
       -0.24073604 0.15231511 0.16145948 0.15241848
0003b0 c4 ec d5 3d 08 1d 85 be 7e 62 52 3d 17 45 c5 3e
       0.1044555 -0.25998712 0.05136346 0.38529274
0003c0 b4 c7 50 be 85 a7 8e bd 23 65 58 3e ae 27 09 3e
       -0.2038868 -0.069655456 0.2113233 0.13394043
0003d0 d3 72 01 be 3b e8 d3 bc 47 7a a8 be b9 e6 b3 be
       -0.12641458 -0.025867572 -0.3290579 -0.35136965
0003e0 87 e8 3c be a4 fa c5 bc 55 b6 ed bc 80 9e 33 3e
       -0.18448077 -0.024167366 -0.029017607 0.17540932
0003f0 e4 f4 0a 3e e4 55 0c be f3 b4 5c be 6f da 2e 3e
       0.13569981 -0.1370464 -0.21553402 0.17075513

cnn.3.0.bias f4 [64]
000000 28 3c 84 ba df 53 18 b9 c4 eb 48 39 03 72 18 ba
       -0.0010088729 -0.00014527094 0.00019161316 -0.0005815329
000010 dc d8 e1 ba d4 0c 0c 3a f4 47 0b ba 66 dc 35 ba
       -0.0017230767 0.0005342488 -0.0005313151 -0.0006937444
000020 73 6c 4e 3a 09 d9 c7 39 43 f7 2d 37 48 be 35 3a
       0.00078744366 0.00038117942 1.0369174e-05 0.0006932956
000030 dc 4c 46 39 f7 31 a2 3a 88 c1 91 3a c5 3b 9e 3a
       0.00018911384 0.001237451 0.0011120299 0.0012072256
000040 0a e8 a3 3a 99 10 5d 39 de 5c 42 ba 62 f5 81 3a
       0.0012505066 0.00021082386 -0.0007414351 0.0009915049
000050 ca 1f 74 b9 49 d0 dd 39 23 af d9 b8 0b 25 8e 3a
       -0.00023281496 0.0004230759 -0.00010379988 0.001084478
000060 de 81 9a 3a 98 b0 02 ba 6f 84 da ba 18 cc 92 ba
       0.0011787971 -0.0004985421 -0.0016671548 -0.0011199741
000070 a7 f6 d7 b9 e2 db 9c 39 e2 47 da 39 99 91 81 ba
       -0.00041191766 0.00029918464 0.00041633757 -0.000988531
000080 d0 8b c9 ba df 65 0b 3a b6 db 93 b7 f7 d4 ba b9
       -0.001537675 0.0005317609 -1.7626076e-05 -0.00035635356
000090 27 85 22 3a d1 36 27 3a cd b5 16 3b 29 13 05 3b
       0.0006199651 0.0006378713 0.0022996545 0.002030561
0000a0 3e 84 c6 b9 51 f5 e5 39 26 f7 1b 3a 29 eb eb 39
       -0.0003786403 0.0004386106 0.0005949609 0.000449979
0000b0 03 16 48 3b a8 96 5a 39 f7 52 69 3a 01 69 5e 3a
       0.0030530698 0.00020846224 0.00089006074 0.0008484275
0000c0 ec 21 9e 3a fc 27 d3 39 d1 7d a9 b9 39 58 c2 3a
       0.0012064553 0.00040274847 -0.00032327932 0.0014827318
0000d0 40 d8 d5 3a 8d 21 70 ba e3 b7 3e 3a 94 e4 9a b9
       0.0016315058 -0.0009160273 0.0007275326 -0.00029543473
0000e0 14 f9 c0 ba 7f d3 ea ba 66 46 fa b9 ce be d5 38
       -0.0014722669 -0.0017915814 -0.00047736167 0.000101921716
0000f0 5d 52 ef b9 99 bd ee 3a b8 5e 67 ba 03 93 cf 39
       -0.00045646998 0.0018214463 -0.0008826065 0.0003959165

cnn.3.1.weight f4 [128, 64, 1, 1]
000000 9b 94 1e be db 08 6b 3e ca 00 6a 3d 66 5b 82 3b
       -0.15486376 0.22952597 0.05712966 0.0039781807
000010 64 fd d0 bb 14 31 49 3e fb 62 c6 be f2 15 96 be
       -0.0063778628 0.19647628 -0.3874739 -0.29313618
000020 c6 4c d0 3d 18 9f 72 3e 2a 09 dc 3d bc bf 83 3e
       0.10170893 0.23693502 0.107439354 0.2573222
000030 49 4e ce bc 86 e3 13 3e 41 3b 2b 3e c8 d1 e2 3d
       -0.025183814 0.14442262 0.16721822 0.11075169
000040 cc 8e 6f bd a0 90 86 bb 4f 91 03 3e d7 d0 22 be
       -0.05848579 -0.004106596 0.128484 -0.15899979
000050 68 4c 81 be 70 29 0c 3e e5 6c a8 bc aa 89 26 3e
       -0.25253606 0.13687682 -0.020559737 0.16263452
000060 59 f3 c2 3d 89 63 4f be 19 f3 58 bc 0f 15 71 be
       0.09519071 -0.20252813 -0.013241553 -0.2354319
000070 ad 31 ae 3c 33 89 4a be 01 4f 2c be c5 46 1c bc
       0.021263922 -0.197789 -0.16827013 -0.009538357
000080 48 44 30 3e 08 c1 ae 3e 50 13 84 bd 9a 3d aa bd
       0.17213547 0.34131646 -0.06448996 -0.08312531
000090 d1 89 5f bd be 5b 03 be 76 77 17 3d b1 40 da be
       -0.05457479 -0.12827966 0.03697916 -0.4262748
0000a0 be 23 7a bd 62 d4 51 3d 11 26 2d be 61 73 7b 3e
       -0.061069243 0.051227935 -0.16909052 0.24555732
0000b0 ee 37 6e 3e 25 c5 9b bd 62 fb ef 3d 44 f7 bb 3e
       0.23263523 -0.07605962 0.11717869 0.36712086
0000c0 54 b7 d2 3c c1 80 8a 3d 8a a6 d2 3d 80 bd 17 3d
       0.025722183 0.06762839 0.10285671 0.037045956
0000d0 57 97 28 3d 5e 19 2d 3e f4 0c f7 bd ae d6 18 be
       0.041159954 0.16904208 -0.120630175 -0.14925644
0000e0 52 e4 6a 3d fe 2f 7d 3d 1a 61 81 bd 2e 06 60 3d
       0.05734665 0.061813347 -0.06317349 0.054693393
0000f0 90 c3 53 be f3 3c 8f 3b ff 77 29 be 9d 85 29 3e
       -0.2068007 0.0043712794 -0.16549681 0.16554876
000100 1b 6f d9 bc 5f 28 01 3f cd ca 81 3e 07 7d 38 3e
       -0.026542237 0.50452226 0.25350037 0.18016444
000110 9c e4 62 be ff 40 8c be e5 1a 97 bd a0 2d 8a 3d
       -0.2215752 -0.27393338 -0.073781766 0.067469835
000120 e3 e8 96 3c 07 52 0c 3d 23 f9 1a bb 2b ce 49 bd
       0.018421596 0.034257915 -0.0023647032 -0.049268883
000130 23 58 31 3e a2 a8 c6 bd d3 2d 21 bb fb 5a 6f 3d
       0.17318778 -0.09700133 -0.0024593964 0.058436375
000140 16 1a 9f 3b ea d2 29 3e 2c d9 ec 3d 15 c7 53 bc
       0.0048554046 0.16584364 0.1156486 -0.012925883
000150 5c 33 ad be 66 d0 c5 bc 9f bf e3 bd 67 a1 d2 3c
       -0.33828247 -0.024147224 -0.11120533 0.025711728
000160 be aa ce bd a7 ea 0a 3d 1e 38 fb bd d8 e8 c1 bd
       -0.1009116 0.03391519 -0.12266563 -0.094682395
000170 6c f9 fe 3d 32 2d 18 bd 8f fe 96 be 4a 76 93 bd
       0.12449917 -0.037152477 -0.29491088 -0.07200296
000180 d3 9e 85 be 25 66 0d 3e 76 78 87 3c 91 8c 67 bd
       -0.26097736 0.13808496 0.016536932 -0.05653054
000190 10 d2 51 be 32 4d f0 3d ff ee 98 bc 5b 0d 3b 3d
       -0.20490289 0.11733474 -0.01866865 0.045667034
0001a0 10 45 a1 3e bc f2 38 3d 8d 09 9e 3d c3 aa 97 3d
       0.31498003 0.045153365 0.077166654 0.07405617
0001b0 a6 e9 26 be 62 b4 19 3d 48 b8 05 be a8 27 b0 3d
       -0.16300067 0.037525542 -0.13058579 0.08601314
0001c0 6c 19 4e bc ff ec b3 be 5c 85 bf 3d 92 81 75 3d
       -0.012579303 -0.3514175 0.09351608 0.05993802
0001d0 22 c9 f6 3d e0 fc 23 be 00 87 f2 bd 0a f0 31 3e
       0.12050082 -0.16014433 -0.118421555 0.17376724
0001e0 10 9f 18 bc ef bd c6 bd 52 e1 95 3d fb 85 91 be
       -0.009315267 -0.09704196 0.07318367 -0.2842253
0001f0 7e 5c 4e 3d 36 15 aa 3d 23 2b 9b 3d dd 0d 84 3c
       0.050381176 0.08304827 0.07576587 0.016119892
000200 25 80 34 3d 3d 5f 93 3e 5f 78 8b 3e 88 c3 21 3d
       0.04406752 0.287836 0.27240273 0.039493114
000210 f3 3d 05 3e e4 f0 ce 3d 9a 32 2b 3e 95 0c 03 3d
       0.13011913 0.1010454 0.16718522 0.03199442
000220 15 60 47 be 9e be a8 be ff f7 06 be a8 95 37 be
       -0.19470246 -0.3295793 -0.1318054 -0.17928183
000230 28 2c 9d 3d c8 e1 7c 3d 1b 1b 0a bd 77 39 ac bd
       0.07674438 0.06173876 -0.033717256 -0.08409398
000240 8a ba be 3c 28 10 aa 3d 8e 08 0e be 41 7f 1e 3e
       0.023282308 0.08303863 -0.13870451 0.15478231
000250 c5 5f a4 bd 34 d4 50 be b2 b9 a5 3e 43 52 11 3e
       -0.08026079 -0.20393449 0.32368237 0.14191537
000260 e9 11 3c 3c 4f 29 86 3c 3f 51 46 be 57 76 a0 bd
       0.0114788795 0.01637712 -0.1936693 -0.078350715
000270 f9 cc ea 3d d6 19 79 3e ab 06 bc 3d 65 84 95 be
       0.11464877 0.24326262 0.09180959 -0.29202572
000280 2a f0 1b 3e 72 13 75 3e b4 51 2e 3d 88 b3 f5 bd
       0.15228334 0.23933199 0.042558387 -0.119971335
000290 f0 46 01 be 44 c9 ca 3c d3 17 d1 3d a1 a7 b9 3e
       -0.12624717 0.024754174 0.10209622 0.36260703
0002a0 cb a7 19 3e 67 70 b8 3d fa 6b f8 bd 9d 8d f1 3d
       0.15005414 0.09005814 -0.1212997 0.11794589
0002b0 79 28 c9 bd c3 78 5d 3d b2 64 98 be 01 63 86 3e
       -0.09822173 0.054070245 -0.29764324 0.2624741
0002c0 e4 ac 14 bd e4 82 8d 3e 48 bd d0 bd f4 8c a9 3e
       -0.036297694 0.27638924 -0.101923525 0.3311535
0002d0 4a e4 68 3e 2a ff 26 bc 81 36 e4 bc e2 ad 13 3e
       0.22743335 -0.010192672 -0.02785802 0.144218
0002e0 8e 60 37 3c 2e 73 f9 bd 68 a8 12 be 5c 66 c2 bd
       0.011192454 -0.12180172 -0.14322054 -0.0949218
0002f0 72 19 d6 bd 6d 70 7f be c4 58 ad bd e2 55 40 bd
       -0.10454072 -0.24945231 -0.08464196 -0.046956904
000300 87 f7 d6 3d 4b 6e 1d 3e 59 e8 aa 3e 10 ce ff bc
       0.10496431 0.15374105 0.33380392 -0.031226188
000310 a0 b8 8b 3d 1f 2a 71 bd 03 38 cd bd 53 e7 c7 3d
       0.06822324 -0.05887806 -0.10020449 0.097609185
000320 a1 72 9d 3d 3e c4 c4 be af 43 23 be 05 6f 81 3e
       0.07687879 -0.3843097 -0.15943788 0.25280014
000330 f4 19 ac 3d a8 9c 3c 3e 33 d5 90 ba 90 d7 90 be
       0.08403388 0.18419135 -0.0011049866 -0.2828946
000340 d9 56 51 be 9d b2 c2 3c 72 1b 9d be 99 6a a0 3e
       -0.20443286 0.02376681 -0.30685002 0.31331328
000350 fc 62 87 bd 23 8b 3e bd b4 08 5a 3e 96 99 18 be
       -0.06610677 -0.04651941 0.21292382 -0.14902338
000360 3b 1f 15 3d 4c 32 ac bd 79 38 a0 3d 12 01 56 3e
       0.036406737 -0.08408031 0.07823271 0.20898846
000370 40 bb 7f 3e 14 1c 48 bd 4b fb c1 3d d7 44 eb 3a
       0.24973774 -0.048854902 0.094717585 0.0017949593
000380 76 f3 d3 3d 6a 44 20 3e 94 c0 db bd c3 31 27 be
       0.10349171 0.15651098 -0.10730091 -0.16327576
000390 79 ed 31 3e 20 47 80 3d b8 f5 5c 3d 7f 3c 9b 3e
       0.17375745 0.06263566 0.053945273 0.30319592
0003a0 99 c4 28 be 03 6e 04 3e 40 a6 da 3c bd 49 8c be
       -0.16481246 0.12932591 0.026690602 -0.27400008
0003b0 11 73 ea bc 3c 66 49 bd 34 ac 90 bd cb ce 57 bd
       -0.028619321 -0.049169764 -0.07064095 -0.052687448
0003c0 75 e1 2a be 76 52 16 3d b1 7d 49 be 1b 2c b5 3d
       -0.16687568 0.036699735 -0.19676854 0.08846303
0003d0 59 b6 c7 3d 45 23 8f 3d b2 5a 93 3d c5 68 84 3d
       0.09751577 0.06989149 0.07195033 0.06465296
0003e0 eb 44 70 bc 63 55 53 bd 9f 28 14 be b7 0b 77 3d
       -0.014664869 -0.051595103 -0.1446862 0.060313907
0003f0 85 e3 c7 bd 91 03 bc be 00 cd a0 3c 0b 1e 0f 3e
       -0.09760193 -0.3672147 0.019629002 0.13976304
